feynman_kac/torus/ckpt.pt (torch, 148492 bytes, 19 tensors)

noise_scheduler.sigmas f4 [101]
0	0x00000000	0.0
1	0x3c23d70a	0.01
2	0x3c2a719e	0.010403065
3	0x3c315056	0.010822376
4	0x3c3875f1	0.011258588
5	0x3c3fe54b	0.011712383
6	0x3c47a15d	0.012184468
7	0x3c4fad3e	0.0126755815
8	0x3c580c25	0.013186489
9	0x3c60c16c	0.01371799
10	0x3c69d08e	0.014270915
11	0x3c733d2a	0.014846126
12	0x3c7d0b04	0.015444521
13	0x3c839f04	0.016067035
14	0x3c88ed25	0.016714642
15	0x3c8e7204	0.017388351
16	0x3c942fd5	0.018089214
17	0x3c9a28e4	0.018818326
18	0x3ca05f95	0.019576827
19	0x3ca6d664	0.020365901
20	0x3cad8fe6	0.02118678
21	0x3cb48ecb	0.022040745
22	0x3cbbd5df	0.02292913
23	0x3cc3680b	0.023853322
24	0x3ccb4857	0.024814768
25	0x3cd379e7	0.025814964
26	0x3cdc0003	0.026855474
27	0x3ce4de13	0.027937924
28	0x3cee17a3	0.029064005
29	0x3cf7b062	0.030235473
30	0x3d00d614	0.03145416
31	0x3d060778	0.032721967
32	0x3d0b6e72	0.034040876
33	0x3d110d2a	0.035412945
34	0x3d16e5df	0.036840316
35	0x3d1cfae8	0.03832522
36	0x3d234eb3	0.039869975
37	0x3d29e3c8	0.041476995
38	0x3d30bcc8	0.043148786
39	0x3d37dc71	0.044887964
40	0x3d3f459b	0.04669724
41	0x3d46fb3d	0.048579443
42	0x3d4f006c	0.05053751
43	0x3d57585c	0.0525745
44	0x3d600664	0.054693595
45	0x3d690dfc	0.056898102
46	0x3d7272c0	0.059191465
47	0x3d7c3872	0.061577268
48	0x3d83317c	0.06405923
49	0x3d887b33	0.066641234
50	0x3d8dfb7a	0.06932731
51	0x3d93b484	0.07212165
52	0x3d99a89b	0.07502862
53	0x3d9fda21	0.07805277
54	0x3da64b8e	0.0811988
55	0x3dacff77	0.084471636
56	0x3db3f88a	0.087876394
57	0x3dbb3990	0.091418386
58	0x3dc2c56f	0.09510314
59	0x3dca9f2d	0.098936416
60	0x3dd2c9ec	0.1029242
61	0x3ddb48f0	0.10707271
62	0x3de41f9f	0.11138844
63	0x3ded5181	0.11587811
64	0x3df6e244	0.120548755
65	0x3e006add	0.12540765
66	0x3e0597ef	0.1304624
67	0x3e0afa6a	0.13572088
68	0x3e109475	0.14119132
69	0x3e16684c	0.14688224
70	0x3e1c7846	0.15280256
71	0x3e22c6cd	0.15896149
72	0x3e295668	0.16536868
73	0x3e3029b5	0.1720341
74	0x3e374370	0.17896819
75	0x3e3ea670	0.18618178
76	0x3e4655a7	0.19368611
77	0x3e4e5429	0.20149292
78	0x3e56a528	0.2096144
79	0x3e5f4bf7	0.21806322
80	0x3e684c0c	0.2268526
81	0x3e71a8fe	0.23599622
82	0x3e7b668e	0.2455084
83	0x3e82c450	0.255404
84	0x3e8809a0	0.26569843
85	0x3e8d8553	0.2764078
86	0x3e93399a	0.28754884
87	0x3e9928bd	0.29913893
88	0x3e9f551b	0.31119618
89	0x3ea5c12c	0.3237394
90	0x3eac6f81	0.3367882
91	0x3eb362c6	0.35036296
92	0x3eba9dc3	0.36448488
93	0x3ec2235a	0.37917596
94	0x3ec9f68f	0.39445922
95	0x3ed21a83	0.41035852
96	0x3eda9275	0.42689863
97	0x3ee361c9	0.44410542
98	0x3eec8c04	0.46200573
99	0x3ef614d2	0.4806276
100	0x3f000000	0.5

noise_scheduler.sigmas_norm f4 [101]
0	0x3f800000	1.0
1	0x46205d28	10263.289
2	0x4610d96d	9270.356
3	0x4602347e	8333.123
4	0x45f16641	7724.7817
5	0x45de7e37	7119.777
6	0x45d1d9aa	6715.208
7	0x45c491a3	6290.2046
8	0x45b6a1f3	5844.2437
9	0x45a46050	5260.039
10	0x4599451b	4904.638
11	0x458cb1b3	4502.2124
12	0x4583fad4	4223.3535
13	0x45785b2d	3973.6985
14	0x455d1ca4	3537.79
15	0x454b6752	3254.4575
16	0x4539edc6	2974.8608
17	0x452e1d12	2785.817
18	0x452608d3	2656.5515
19	0x45173aae	2419.6675
20	0x450a0a5d	2208.6477
21	0x45012b22	2066.6958
22	0x44ef70f9	1915.5304
23	0x44def7c8	1783.7432
24	0x44d05e5d	1666.9489
25	0x44be4567	1522.1688
26	0x44b3173d	1432.7262
27	0x449eee34	1271.4438
28	0x4493c440	1182.1328
29	0x4488fafe	1095.8435
30	0x447aadd1	1002.7159
31	0x4462d272	907.2882
32	0x444f7218	829.7827
33	0x444acb24	811.1741
34	0x443b3b44	748.926
35	0x442be851	687.62994
36	0x441f9eee	638.4833
37	0x4412af49	586.73883
38	0x44068fa8	538.2446
39	0x43fc7de5	504.98355
40	0x43e2a51b	453.2899
41	0x43d24527	420.54025
42	0x43c490d5	393.1315
43	0x43b7666c	366.80017
44	0x43a30f59	326.1199
45	0x4398ec89	305.84793
46	0x438bac43	279.3458
47	0x43802cb9	256.3494
48	0x437c5ba9	252.35805
49	0x4363f241	227.9463
50	0x434f729a	207.44766
51	0x43473f2d	199.24678
52	0x433302b3	179.01054
53	0x4324fe7c	164.99408
54	0x431ae3fb	154.89055
55	0x430ab3e6	138.70273
56	0x43047f1b	132.4965
57	0x42ef4d58	119.65106
58	0x42dc3397	110.10076
59	0x42cf6da8	103.71417
60	0x42bee708	95.45123
61	0x42b29151	89.28382
62	0x42a62d00	83.08789
63	0x4298a075	76.31339
64	0x42876d52	67.71352
65	0x427d6da8	63.357086
66	0x426d234d	59.284473
67	0x425c904f	55.140926
68	0x42421e07	48.529324
69	0x4230e5ec	44.224533
70	0x422625e8	41.537018
71	0x421ade0e	38.71685
72	0x42073e6d	33.810963
73	0x41ed6076	29.6721
74	0x41db779e	27.433407
75	0x41c13db4	24.155128
76	0x41a8b4d7	21.0883
77	0x4195b10c	18.711449
78	0x417c6af2	15.77611
79	0x4156fc8f	13.43666
80	0x4139418a	11.578501
81	0x4117857f	9.470092
82	0x40fefd22	7.9684
83	0x40ca4c43	6.3218093
84	0x40a49ee5	5.1443963
85	0x40826b83	4.075624
86	0x4047b9ef	3.1207235
87	0x4018d2e9	2.387873
88	0x3fe429b7	1.782523
89	0x3fa155a7	1.2604264
90	0x3f66182b	0.8988063
91	0x3f1ffd65	0.62496024
92	0x3ed6d77a	0.4196127
93	0x3e89cbd1	0.26913312
94	0x3e2aba3d	0.16672607
95	0x3dcfe176	0.10150425
96	0x3d72a607	0.059240367
97	0x3d078040	0.033081293
98	0x3c8da733	0.01729164
99	0x3c103efa	0.008804077
100	0x3b86d0da	0.0041142525

pos_emb.freqs f4 [16]
0	0x3f800000	1.0
1	0x40000000	2.0
2	0x40400000	3.0
3	0x40800000	4.0
4	0x40a00000	5.0
5	0x40c00000	6.0
6	0x40e00000	7.0
7	0x41000000	8.0
8	0x41100000	9.0
9	0x41200000	10.0
10	0x41300000	11.0
11	0x41400000	12.0
12	0x41500000	13.0
13	0x41600000	14.0
14	0x41700000	15.0
15	0x41800000	16.0

pos_emb.layers.0.weight f4 [64, 32]
0	0xbe26cdb7	-0.16289411
1	0xbd05747c	-0.03258179
2	0x3db48577	0.08814519
3	0xbcd73683	-0.02627111
4	0x3d953ed3	0.072873734
5	0xbd641c78	-0.055691212
6	0xbda76c2b	-0.08174928
7	0x3d344048	0.044006616
8	0xbda12a23	-0.07869365
9	0xbdd389cf	-0.10329019
10	0xbe127be4	-0.14305073
11	0xbe3295d1	-0.17439963
12	0xbdeb1a7b	-0.1147966
13	0xbe34329f	-0.17597435
14	0xbc989450	-0.018625408
15	0x3ddd7a55	0.108143486
16	0x3d3fb7e2	0.046806224
17	0x3e1d5e91	0.15368105
18	0xbd774508	-0.060368568
19	0x3d308281	0.04309321
20	0x3e2b34e6	0.16719398
21	0xbdaa158e	-0.083048925
22	0xb9df0a39	-0.0004254149
23	0x3d421da8	0.047391564
24	0x3c72b732	0.014814185
25	0x3da38650	0.079846025
26	0xbe0eb666	-0.13936767
27	0x3e217543	0.15767388
28	0xbdabc607	-0.0838738
29	0x3de46891	0.11152757
30	0xbd928ab3	-0.07155361
31	0xbcce305e	-0.025169548
32	0xbe111eb2	-0.14171866
33	0xbd1502c2	-0.036379583
34	0x3e1d5f5d	0.1536841
35	0xbe2c0786	-0.16799745
36	0x3e145c8d	0.1448843
37	0x3cb9c6ec	0.022677861
38	0xbc63e4cd	-0.013909531
39	0x3cc39d8a	0.023878831
40	0x3e0b9ca7	0.13633977
41	0xbdc6f4a0	-0.09714627
42	0x3b877750	0.004134096
43	0x3bfed69a	0.0077770473
44	0xbe3a0c39	-0.18168725
45	0xbc805ee0	-0.01567024
46	0xbdb8ec80	-0.09029484
47	0x3dd5c975	0.104388155
48	0xbd938c8c	-0.072045416
49	0xbd0a4e1a	-0.03376589
50	0xbd24e9bd	-0.040261973
51	0xbddac3bd	-0.10681865
52	0x3cbd041b	0.023073247
53	0x3ca7e58e	0.020495202
54	0xbcddfb2e	-0.02709731
55	0x3d7e2df0	0.06205553
56	0xbe39731e	-0.1811032
57	0xbde8a1dd	-0.11358998
58	0x3da7d52f	0.081949584
59	0xbdde7ad0	-0.108632684
60	0x3d1e9590	0.038716853
61	0x3e321d19	0.17393912
62	0x3dcf4aa9	0.10121662
63	0x3db0334a	0.086035326
64	0x3e38ba88	0.18039906
65	0x3df0a452	0.117500916
66	0xbdc85215	-0.09781281
67	0x3dc1c4fc	0.094614
68	0x3e0c45f1	0.13698556
69	0x3df0a7da	0.11750765
70	0x3e23bbc0	0.1598959
71	0x3e3e3bab	0.18577449
72	0x3e107c16	0.14109835
73	0xbd8b31c6	-0.06796603
74	0xbd412b72	-0.047160573
75	0xbe194c44	-0.149705
76	0xbe1e5111	-0.15460612
77	0xbe2ae6a4	-0.16689545
78	0x3d53a64f	0.051672276
79	0xbd2fd6b0	-0.04292935
80	0x3d2f5a58	0.042810768
81	0x3c993db6	0.018706184
82	0x3e16f77e	0.14742848
83	0x3d374653	0.0447448
84	0xbe101eea	-0.14074293
85	0xbd90ef37	-0.070768766
86	0x3d54c834	0.05194874
87	0x3cb20582	0.021731142
88	0xbe1f07d1	-0.15530325
89	0x3d1f83bb	0.038943987
90	0xbe39c4dc	-0.18141502
91	0xbd8cd950	-0.068773866
92	0xbdc1e5f0	-0.09467685
93	0xbd292ea6	-0.041304253
94	0xbcd35452	-0.025797043
95	0x3e56181c	0.20907634
96	0xbd3f0cba	-0.046642996
97	0x3c3a6ffa	0.011379236
98	0x3c5f54d8	0.013631068
99	0xbe28e55c	-0.16493744
100	0x3d788f89	0.06068376
101	0x3d5a619a	0.053315736
102	0xbdb54eff	-0.08852958
103	0xbda82db3	-0.082118414
104	0x3e3c8ec2	0.18413833
105	0x3d9bd843	0.07609608
106	0xbe381bac	-0.17979306
107	0xbe3a6147	-0.18201171
108	0x3dab1065	0.083527364
109	0xbde9cdad	-0.11416183
110	0xbdba4baa	-0.09096463
111	0xbda269e7	-0.079303555
112	0xbde83acf	-0.11339342
113	0xbdac9c5f	-0.08428263
114	0x3e114b4a	0.14188877
115	0x3d57ffc2	0.052734144
116	0xbda06ede	-0.07833646
117	0xbb8e3fd5	-0.0043411055
118	0x3d7e4a89	0.0620828
119	0xbe0633ad	-0.1310565
120	0x3de3b283	0.11118033
121	0xbdcc5704	-0.099775344
122	0x3decc74d	0.11561451
123	0x3d1ddee6	0.03854265
124	0x3df5ffea	0.12011702
125	0x3dcb6d7d	0.099329926
126	0x3e07518e	0.13214704
127	0x3e0c94a4	0.13728577
128	0x3c445664	0.011983488
129	0xbd6ab1a1	-0.057298306
130	0x3dc6375b	0.09678527
131	0xbe21460f	-0.15749381
132	0x3dcb392f	0.09923016
133	0x3e15381d	0.14572187
134	0xbe217aa9	-0.15769447
135	0xbe000d01	-0.1250496
136	0xbd1f2d96	-0.038861834
137	0x3d8813ec	0.06644425
138	0xbca14f2b	-0.01969107
139	0xbc55fafe	-0.0130603295
140	0x3e57e2a8	0.21082556
141	0xbd5fc2c2	-0.054629095
142	0x3dd3c939	0.103411146
143	0xbda98e0f	-0.08279049
144	0x3ad21732	0.0016028641
145	0x3e22a2ad	0.15882368
146	0x3cd1377a	0.025539149
147	0xbd7cbec4	-0.061705366
148	0x3c225e29	0.009910145
149	0x3e098391	0.13429095
150	0x3d9865ca	0.0744129
151	0x3dddbbab	0.108268104
152	0x3dd4c414	0.103889614
153	0x3de253e7	0.11051159
154	0xbd3296eb	-0.043600958
155	0xbcdf18e4	-0.027233548
156	0xbe4bea73	-0.19913654
157	0xbe0bae58	-0.13640726
158	0xbe43a119	-0.19104423
159	0xbd476b9a	-0.0486866
160	0x3d74a445	0.059726972
161	0xbda7ac02	-0.08187105
162	0xbbf4b7bc	-0.007468192
163	0x3d20240b	0.039096873
164	0xbde0cd38	-0.10976642
165	0xbd47e61e	-0.04880344
166	0x3df40264	0.119145185
167	0x3e2e69a0	0.1703248
168	0x3de14ad5	0.11000601
169	0x3e050031	0.12988354
170	0xbd9feca0	-0.078088045
171	0x3e293eca	0.16527858
172	0xbc823a95	-0.015897075
173	0x3ca1d945	0.019756922
174	0x3e090b3c	0.13383192
175	0x3c9dee64	0.019278713
176	0x3dae9aab	0.08525594
177	0xbc196e46	-0.00936467
178	0x3d9611e1	0.07327629
179	0x3db6ad97	0.089198284
180	0x3dd3593f	0.10319757
181	0xbceb2939	-0.02870618
182	0xbe024c0c	-0.12724322
183	0xbdb14bd4	-0.08657041
184	0x3dee2642	0.11628391
185	0x3e13c1f4	0.14429456
186	0x3e27ea47	0.16397963
187	0xbddf182e	-0.10893284
188	0x3c554d9c	0.013018992
189	0x3df4ea0b	0.11958703
190	0xbd2276e2	-0.039664157
191	0xbd90c5e8	-0.070689976
192	0x3b86fab4	0.0041192416
193	0xbdee3d41	-0.11632777
194	0xbe0f8ef1	-0.14019372
195	0xbdd165eb	-0.102245174
196	0x3d33345a	0.0437511
197	0xbd904699	-0.070447154
198	0xbd96ecdc	-0.07369396
199	0x3e2c7aa2	0.16843656
200	0x3d31c4a2	0.043400414
201	0x3df798bd	0.120896794
202	0xbcf3eceb	-0.029776057
203	0xbe56014a	-0.20898929
204	0xbde92deb	-0.11385711
205	0x3d753cf7	0.059872594
206	0xbe008927	-0.1255232
207	0x3e1454c6	0.14485464
208	0x3d9277c6	0.07151751
209	0xbd1b7fb6	-0.03796359
210	0x3dabd8b8	0.08390945
211	0xbd8bc5de	-0.068248495
212	0xbe38b995	-0.18039544
213	0x3e25c534	0.16188508
214	0xbd1b0907	-0.037850406
215	0xbe11f544	-0.14253718
216	0xbc043acc	-0.008070659
217	0xbe483305	-0.19550712
218	0x3d03355a	0.032033302
219	0xbcddae20	-0.027060568
220	0x3e0283c7	0.12745582
221	0x3e25dd00	0.16197586
222	0x3d781124	0.06056322
223	0xbc7e07ea	-0.015504817
224	0xbcc152c3	-0.023599034
225	0x3c0c190f	0.008550896
226	0x3d4705a6	0.04858937
227	0x3e090fe9	0.13384975
228	0x3cc93f2e	0.02456626
229	0x3e025607	0.1272813
230	0x3c56fe1e	0.01312211
231	0xbe2cbd47	-0.16869079
232	0xbdc2fc60	-0.09520793
233	0xbe379a57	-0.1792997
234	0x3db57b26	0.08861379
235	0xbde82aa8	-0.11336261
236	0x3e04ea3c	0.12979978
237	0x3d9d2a65	0.07674102
238	0x3dacb317	0.08432596
239	0x3a5d9526	0.0008452706
240	0x3e2ee897	0.17080913
241	0x3d74d9fe	0.059778206
242	0x3e05e396	0.13075098
243	0xbd397045	-0.045273084
244	0x3dd72b96	0.1050636
245	0xbd64b9c6	-0.05584123
246	0x3e22db5c	0.15903991
247	0xbe01acbf	-0.12663554
248	0xbd8a36b4	-0.06748715
249	0xbd280bb3	-0.041026782
250	0xbd9acbfb	-0.075584374
251	0xbe3e932b	-0.18610828
252	0x3e0d4bc4	0.13798434
253	0x3e43b449	0.19111742
254	0x3e4896e9	0.19588818
255	0x3bada651	0.0052993675

pos_emb.layers.0.bias f4 [64]
0	0x3de8140d	0.113319494
1	0x3d87fe25	0.06640271
2	0x3d9f29f9	0.077716775
3	0x3e3afa89	0.18259634
4	0xbc63ba0e	-0.013899339
5	0xbdb32d23	-0.087488435
6	0x3e39ea7d	0.18155856
7	0xbd138153	-0.036012005
8	0xbe21e322	-0.158093
9	0x3dad5480	0.08463383
10	0x3df631b0	0.12021196
11	0xbcc3eea4	-0.023917504
12	0x3ce224fb	0.027605524
13	0x3df6ea45	0.12056402
14	0x3de9df46	0.11419539
15	0xbd9f0e98	-0.077664554
16	0x3d913cd6	0.07091682
17	0xbdcb3143	-0.09921505
18	0xbd235259	-0.039873455
19	0xbe14e1dc	-0.14539284
20	0xbe0151de	-0.12628886
21	0x3ca4fcfe	0.020140167
22	0x3d7af57b	0.061269265
23	0xbd920dcc	-0.07131538
24	0x3da3d335	0.07999269
25	0xbe06f699	-0.13180007
26	0xbcd71b2c	-0.026258074
27	0x3e136e27	0.14397489
28	0xbd334ecc	-0.04377632
29	0x3dd4705f	0.103729956
30	0x3df6ae5b	0.120449744
31	0xbc8c1a0a	-0.01710226
32	0xbd020c8a	-0.03175024
33	0x3dc0df4f	0.09417593
34	0x3d3c865d	0.046026576
35	0xbd3026af	-0.04300564
36	0xbda63bdf	-0.08116888
37	0x3e04f2b1	0.12983204
38	0x3e29c597	0.16579281
39	0x3dfae39b	0.122504435
40	0x3d01bf17	0.031676378
41	0xbdcdc66b	-0.10047611
42	0x3d9946da	0.07484217
43	0xbdb2c382	-0.087286964
44	0xbd94534f	-0.07242452
45	0xbdf6bb0e	-0.120473966
46	0xbdaff2fb	-0.08591267
47	0x3c45b37a	0.012066716
48	0x3d847677	0.06467908
49	0xbda75718	-0.08170909
50	0x3e345299	0.17609634
51	0x3e0e2199	0.13880004
52	0xbd08b622	-0.03337682
53	0xbd0ff6b6	-0.03514739
54	0x3c689fd4	0.014198262
55	0x3e2e3071	0.17010666
56	0xbd354432	-0.04425449
57	0x3c8d49da	0.01724713
58	0xbde15d65	-0.11004142
59	0x3e0c1afd	0.1368217
60	0x3e0b21e7	0.13587151
61	0xbda81bac	-0.08208403
62	0x3df582c1	0.1198783
63	0x3d1993d3	0.03749449

pos_emb.layers.2.weight f4 [64, 64]
0	0xbd5742cf	-0.052553948
1	0xbdbbad51	-0.09163917
2	0x3d305a4b	0.04305486
3	0xbd94daf8	-0.072683275
4	0x3e26079b	0.16213839
5	0x3d7db2d9	0.06193814
6	0x3d11dd2f	0.035611328
7	0xbcdc67ec	-0.026905023
8	0x3cad2350	0.021135002
9	0xbe2aa415	-0.16664155
10	0x3c694f3c	0.014240082
11	0x3ca33632	0.019923303
12	0x3d844c63	0.06459882
13	0x3ce27521	0.027643742
14	0x3d45f824	0.04833235
15	0xbc9a0c88	-0.018804803
16	0x3c89f04b	0.016838213
17	0xbdd48449	-0.10376794
18	0x3df8179d	0.12113879
19	0xbce9af4f	-0.028525976
20	0xbcd719af	-0.026257364
21	0xbdd0868d	-0.101819135
22	0xbd301ded	-0.04299729
23	0x3e028769	0.12746967
24	0xbd1acc1e	-0.037792318
25	0xbd3936dc	-0.045218334
26	0x3d607774	0.05480142
27	0xbcf0ef23	-0.029410904
28	0x3ca6aef2	0.020347092
29	0xbdfa2a79	-0.12215132
30	0x3ddbe3e4	0.10736826
31	0x3c92d004	0.017921455
32	0xbd1e79fa	-0.038690545
33	0x3dd83fac	0.105590194
34	0xbd3508d0	-0.044197857
35	0xbe043b25	-0.12913187
36	0x3dd557f3	0.104171656
37	0x3d52ca18	0.051462263
38	0xbd029add	-0.03188597
39	0xbdd3128e	-0.103062734
40	0xbc7a2851	-0.015268401
41	0xbd05a85e	-0.03263127
42	0x3e0bb9b4	0.13645059
43	0x3d8d36eb	0.068952404
44	0x3d9f6a89	0.07783992
45	0xbd6c5370	-0.05769676
46	0xbd7c44e6	-0.061589144
47	0xbe1daa4c	-0.15396994
48	0xbd004704	-0.031317726
49	0xbdf5526f	-0.119786136
50	0x3d9e01a8	0.0771516
51	0x3e16df32	0.1473358
52	0xbd063849	-0.03276852
53	0xbdaca077	-0.08429044
54	0x3db88ff2	0.090118304
55	0xbd302aa1	-0.043009404
56	0xbcc5bf5f	-0.024139104
57	0x3d2fdf21	0.0429374
58	0xbdc1c639	-0.09461636
59	0x3d226506	0.039647125
60	0xbd779394	-0.060443476
61	0x3d1dc364	0.038516417
62	0x3de8c430	0.11365545
63	0xbdaef349	-0.08542497
64	0xbd739281	-0.05946589
65	0x3dfbadfc	0.12289044
66	0x3e1516d2	0.14559487
67	0x3d8865bf	0.066600315
68	0xbd9535d8	-0.072856605
69	0x3dbfc043	0.09362843
70	0x3d3b726d	0.04576342
71	0x3db1a49c	0.08673975
72	0x3d11ea33	0.03562374
73	0x3dc63459	0.09677953
74	0xbde52a15	-0.11189667
75	0xbc349659	-0.011022174
76	0x3e2ee150	0.17078137
77	0x3cfa2341	0.030534388
78	0x3dc60a92	0.09669985
79	0xbdfe7d0e	-0.12426196
80	0x3d36b1c9	0.044603143
81	0x3df8dcaf	0.12151467
82	0xbdc31a7b	-0.09526535
83	0xbe0c4f44	-0.13702112
84	0xbc93985f	-0.018016992
85	0x3e08e45f	0.13368367
86	0xbdd4adf5	-0.10384742
87	0x3c331d8f	0.01093234
88	0xbdabea35	-0.08394281
89	0x3d534c6c	0.051586553
90	0x3d6863d6	0.056735836
91	0x3d0a9a04	0.033838287
92	0x3dd65efb	0.10467335
93	0x3a4097a5	0.00073468155
94	0x3dbe500d	0.09292612
95	0xbc1f1e73	-0.0097118495
96	0xbd91002b	-0.0708011
97	0xbe135593	-0.14388113
98	0xbd375a58	-0.044763893
99	0x3e02891a	0.12747613
100	0x3b3e3f3f	0.0029029397
101	0xbdec9acd	-0.115529634
102	0x3dc26701	0.09492303
103	0x3c4bbd7d	0.012435314
104	0x3e33a937	0.17545019
105	0xbdc7d0cb	-0.09756621
106	0x3dcc7d4f	0.09984838
107	0xbdb83425	-0.08994321
108	0xbdc6009c	-0.09668085
109	0xbb4b4ce5	-0.0031021175
110	0xbb833780	-0.004004419
111	0xbd365536	-0.044514857
112	0x3d4fd0dd	0.050736297
113	0xbd50bedd	-0.05096327
114	0x3d45f68e	0.048330836
115	0xbc1e39e6	-0.009657359
116	0x3d58d093	0.052933287
117	0x3d38650a	0.045018233
118	0x3cfa81eb	0.030579528
119	0x3dfb2a4c	0.12263927
120	0x3dee7a44	0.11644414
121	0xbcf86791	-0.030322822
122	0x3da17739	0.07884068
123	0x3d8ee294	0.0697681
124	0xbdb71d4e	-0.08941136
125	0x3d849b72	0.06474961
126	0x3d81dfcc	0.06341514
127	0x3ce49e0a	0.02790739
128	0xbd90cf35	-0.070707716
129	0x3d5c20ea	0.053742327
130	0x3dcf9cee	0.10137354
131	0xbe102100	-0.14075089
132	0x3e229ebe	0.15880868
133	0x3d9eae26	0.0774806
134	0xbd59a885	-0.05313923
135	0xbe0a3fbd	-0.13500877
136	0xbc867205	-0.01641179
137	0xbd77588d	-0.060387183
138	0xbd124dc8	-0.03571871
139	0xbc8f4770	-0.017490119
140	0xbdc4c908	-0.09608656
141	0x3d3cc8bf	0.046089884
142	0xbc43d6ea	-0.011953095
143	0xbda3b451	-0.07993377
144	0x3d7d6570	0.061864316
145	0xbda0dc9d	-0.07854579
146	0xbd8748b4	-0.06605664
147	0x3dffaee6	0.12484531
148	0x3da207bc	0.079116315
149	0x3cc3ebcc	0.023916148
150	0x3e1bac38	0.15202415
151	0x3c632423	0.013863596
152	0xbd83dab2	-0.06438197
153	0x3d8577e7	0.0651701
154	0xbb4d5a32	-0.0031334278
155	0x3dfc180e	0.123092756
156	0x3c01526e	0.007893188
157	0xbe10b83a	-0.14132777
158	0x3e134901	0.14383318
159	0x3ca545cc	0.020174883
160	0x3d8a89db	0.06764575
161	0x3cd3d690	0.025859147
162	0xbdc8a83b	-0.097977124
163	0x3d921fb8	0.07134956
164	0x3daf868c	0.08570585
165	0x3d2a6f6c	0.041610166
166	0xbdf55379	-0.11978812
167	0xbdc25f03	-0.09490778
168	0xbd7f36c1	-0.062308077
169	0x3d534bef	0.051586088
170	0x3d8766b3	0.06611385
171	0x3c42ba1c	0.011885192
172	0x3d467ec0	0.048460722
173	0xbd5b2a2a	-0.053507008
174	0xbdc8fd66	-0.09813957
175	0xbe0cb4e3	-0.13740878
176	0xbb7794b5	-0.0037777845
177	0xbd98623a	-0.0744061
178	0x3d79b21f	0.060960885
179	0x3d840c30	0.06447637
180	0xbd4ccb24	-0.049998417
181	0x3d96bac0	0.073598385
182	0xbb612816	-0.0034356168
183	0xbe085c24	-0.13316399
184	0x3d629b39	0.055323813
185	0x3d4fbf43	0.05071951
186	0xbd70f648	-0.058828622
187	0xbd7850ed	-0.06062405
188	0xbd1188a0	-0.035530686
189	0xbdad1111	-0.08450521
190	0xbd9d931d	-0.07694075
191	0xbdb94326	-0.09046011
192	0xbd416e0d	-0.047224093
193	0xbb115835	-0.002217782
194	0x3e0ef5e4	0.13960987
195	0x3ce9ef10	0.028556377
196	0xbd8f059f	-0.06983494
197	0x3be697af	0.007037125
198	0x3dc52e7e	0.09628008
199	0xbc009517	-0.007848046
200	0xbd3a2a47	-0.045450475
201	0xb9fda214	-0.00048376678
202	0x3d8f06d4	0.06983724
203	0xbe2cdede	-0.16881892
204	0x3e367af4	0.1782034
205	0x3dcc85eb	0.0998648
206	0x3dcde686	0.100537345
207	0x3cd5d28c	0.026101373
208	0xbc399ae8	-0.011328436
209	0x3e23adda	0.15984288
210	0xbc987e77	-0.01861499
211	0x3d0f7148	0.035020143
212	0xbc5110dd	-0.012760368
213	0xbd0719b9	-0.032983515
214	0xbe0eaa33	-0.13932113
215	0xbc24c120	-0.01005581
216	0x3cb9a5b9	0.02266203
217	0x3d00b7a5	0.031425137
218	0xbd4c2b13	-0.049845766
219	0x3b3cfcae	0.0028837132
220	0x3e10f4db	0.14155905
221	0xb9d8230a	-0.00041224837
222	0xbd00f568	-0.031484038
223	0xbdce1220	-0.10062051
224	0x3dbdcc11	0.09267438
225	0x3d242386	0.04007294
226	0x3d0ad464	0.033893958
227	0x3e24bb30	0.16087031
228	0x3bcf6f9d	0.006330444
229	0xbcee911c	-0.029121928
230	0xbd746ef5	-0.05967613
231	0x3e42afcb	0.19012372
232	0x3e36c13a	0.17847148
233	0x3da58cc0	0.080834866
234	0x3dbd1401	0.09232331
235	0x3cae6ab4	0.021291114
236	0xbdada015	-0.08477799
237	0x3b35e435	0.002775443
238	0x3e243a49	0.16037859
239	0x3dcb83d5	0.09937254
240	0xbd4877bd	-0.048942316
241	0x3dedb8a0	0.1160748
242	0xbe15ba4a	-0.14621845
243	0xbd4f6f33	-0.050643157
244	0x3c37d742	0.011220755
245	0xbd40b039	-0.04704306
246	0xbdab757a	-0.08372016
247	0x3cb22953	0.02174822
248	0x3d88f54a	0.0668741
249	0x3dab7cb2	0.08373393
250	0x3dc03a40	0.0938611
251	0x3da1fd11	0.07909597
252	0x3d2b0669	0.04175416
253	0x3b83fab6	0.00402769
254	0x3dcf8872	0.10133447
255	0xbd53ec71	-0.05173916

pos_emb.layers.2.bias f4 [64]
0	0xbb622ef0	-0.003451284
1	0x3c91c437	0.017793758
2	0x3dea8e4c	0.11452922
3	0xbc375b56	-0.01119121
4	0xbdf0d7d5	-0.11759917
5	0xbd84b2c2	-0.06479408
6	0xbd1e2295	-0.0386072
7	0x3d07da1d	0.033166993
8	0xbdabf2c4	-0.08395913
9	0xbd4c2c3d	-0.049846876
10	0x3e039e7f	0.1285343
11	0xbc321cc6	-0.010871118
12	0x3d919522	0.07108523
13	0xbcd0c280	-0.02548337
14	0xbde96962	-0.11397053
15	0x3df9238f	0.121649854
16	0x3d8bcb08	0.068258345
17	0xbd85c185	-0.065310515
18	0xbc9f0192	-0.019409928
19	0xbd1caf81	-0.03825331
20	0x3d4faeeb	0.050703924
21	0x3df6ba21	0.1204722
22	0x3dda8a39	0.10670895
23	0xbd7b81ec	-0.0614032
24	0xbc48e3a4	-0.012261305
25	0x3d079d29	0.033108864
26	0x3d9ba5f2	0.07600011
27	0x3d891e85	0.06695274
28	0x3cfa3dae	0.03054699
29	0x3dd51ed0	0.10406268
30	0xbcf4d8a6	-0.029888462
31	0xbd2122f3	-0.03933997
32	0x3d56cbb6	0.052440368
33	0x3d8ac340	0.06775522
34	0x3de1b719	0.11021251
35	0xbda691f5	-0.08133308
36	0xbd5a4b3f	-0.053294417
37	0xbcc95110	-0.024574786
38	0x3dacc4f5	0.08436004
39	0x3dcb6834	0.099319845
40	0x3e00a9ae	0.12564728
41	0x3d6e1be0	0.058132052
42	0xbd9ba87c	-0.07600495
43	0xbdd6e83f	-0.10493516
44	0x3ce6d171	0.028176041
45	0x3dbabd85	0.09118179
46	0x3e08eae7	0.13370858
47	0x3d82c4a6	0.06385164
48	0xbdbc8426	-0.09204893
49	0x3d8d0759	0.06886167
50	0xbd7bf450	-0.06151229
51	0xbdcf0480	-0.1010828
52	0xbd82a35b	-0.06378814
53	0x3d220a17	0.039560404
54	0xbd0b197b	-0.033959847
55	0x3cad653a	0.021166433
56	0x3dab36d7	0.08360069
57	0x3d604b68	0.054759413
58	0xbd95f0cd	-0.0732132
59	0x3c6bff4d	0.01440413
60	0xbc1c74c3	-0.009549323
61	0x3da3808c	0.07983503
62	0x3c75bf9e	0.014999298
63	0xbce74824	-0.028232642

drift_model.0.weight f4 [64, 128]
0	0x3dbee0fb	0.09320255
1	0x3d0ed673	0.034872483
2	0xbcbbe2ab	-0.022935232
3	0x3c8936b7	0.016749723
4	0xbc984975	-0.018589715
5	0x3dd7c36e	0.10535322
6	0xbd1cf60c	-0.038320586
7	0xbbab33d4	-0.0052246843
8	0x3d38a953	0.045083355
9	0x3d9af122	0.07565524
10	0xbdd9bdbf	-0.10631894
11	0xbd6c86ee	-0.057745866
12	0xbd47217d	-0.04861592
13	0xbd9d04ae	-0.07666908
14	0xbced8782	-0.02899528
15	0xbde77171	-0.11300934
16	0xbddba14f	-0.107241265
17	0xbc80f15c	-0.01574009
18	0xbe005638	-0.1253289
19	0x3db9fef9	0.09081835
20	0x3b81d530	0.0039621815
21	0xbd180026	-0.037109517
22	0xbce349d9	-0.027745174
23	0xbadd37c9	-0.0016877587
24	0xbd3ea6f4	-0.046545938
25	0xbd8dc9dd	-0.06923268
26	0x39a1797a	0.0003079882
27	0xbd0110e6	-0.031510256
28	0xbe041b93	-0.12901144
29	0x3d41a2bb	0.047274332
30	0xbd83b502	-0.06431009
31	0x3c1a6646	0.009423798
32	0x3d555813	0.052085947
33	0xbd9eabb7	-0.07747596
34	0xbdf48a91	-0.11940492
35	0x3c718a24	0.014742408
36	0x3d0c5f21	0.03427041
37	0xbd1bfa91	-0.038080756
38	0xbcdcc20c	-0.026947998
39	0x3d741bed	0.059596945
40	0x3d9d3fc1	0.07678176
41	0xbdb13063	-0.08651807
42	0x3d210b0f	0.039317187
43	0x3d9c77ea	0.07640059
44	0x3dc8bc0c	0.09801492
45	0x3d706491	0.058689658
46	0x3b104702	0.002201498
47	0xbe0f557b	-0.13997452
48	0xbc990c51	-0.01868263
49	0xbce4c664	-0.027926631
50	0x3db7b9d6	0.08970992
51	0xbd6f3659	-0.05840144
52	0xbd2db420	-0.04240811
53	0x3d7505fc	0.05982016
54	0x3c9ca90d	0.019123578
55	0x3da9a92e	0.082842216
56	0xbb1ee884	-0.0024247477
57	0xbd11d6fe	-0.035605423
58	0xbdd2e892	-0.102982655
59	0x3a40c4bd	0.0007353535
60	0x3cc15ce3	0.023603862
61	0x3d0d4fe7	0.03450003
62	0xbd6497a9	-0.055808697
63	0x3dd5fe1b	0.104488574
64	0xbce5c787	-0.028049244
65	0x3cb1f7bc	0.021724574
66	0x3c893046	0.016746651
67	0xbd14c032	-0.036316104
68	0x3d21bbc9	0.039485727
69	0xbc7ea66c	-0.015542608
70	0xbd726538	-0.05917856
71	0x3d7a735e	0.06114518
72	0xbdcd24ca	-0.100167826
73	0x3d8c3bc6	0.068473384
74	0x3dc06bdb	0.09395572
75	0x3d1edd21	0.038785104
76	0xbd8af6a1	-0.06785322
77	0x3cfe101a	0.031013537
78	0xbd95d84d	-0.07316647
79	0x3cfde74e	0.030994084
80	0x3d1c64a0	0.0381819
81	0xbcfd4134	-0.03091488
82	0xbdbebb56	-0.09313075
83	0xbd750303	-0.059817325
84	0xbc5646e8	-0.013078429
85	0xbdc0f8cb	-0.094224535
86	0x3d98be75	0.07458202
87	0x3c892753	0.016742384
88	0xbdae6e20	-0.085170984
89	0xbd84b3b1	-0.06479586
90	0xbd5b0966	-0.05347576
91	0xbd4d6459	-0.050144527
92	0x3d38d6eb	0.045126837
93	0xbcc213d8	-0.023691103
94	0x3ca45263	0.020058816
95	0xbd46959b	-0.04848252
96	0x3d81f182	0.06344892
97	0x3d6f6ef2	0.058455415
98	0xbd941084	-0.072297126
99	0x3d7bb598	0.06145248
100	0x3d8218cc	0.06352386
101	0xbd9231d9	-0.07138414
102	0xbc53822c	-0.012909453
103	0x3d69456f	0.056950983
104	0xbbebfc57	-0.007201712
105	0x3c32ed1f	0.010920792
106	0xbd52b3b5	-0.051440913
107	0x3b4fc2f9	0.0031701906
108	0x3dd367ce	0.103225335
109	0xbd949aeb	-0.07256111
110	0x3ce24d8e	0.027624872
111	0x3c7558e4	0.014974806
112	0x3d81aa8c	0.06331357
113	0xbd50ebda	-0.051006176
114	0x3baa698e	0.0052005714
115	0x3c3c5c20	0.011496574
116	0x3da5f1e8	0.081027806
117	0x3d4eaf84	0.050460353
118	0x3cdb9f3a	0.026809324
119	0x3d83d643	0.064373516
120	0x3c034bd4	0.008013684
121	0xbcbf8e38	-0.023383245
122	0x3dab5337	0.08365481
123	0xbcb3f049	-0.021965163
124	0xbcea7ef3	-0.028624987
125	0xbd3a5968	-0.04549542
126	0xbdb20240	-0.086918354
127	0x3d8410e9	0.06448538
128	0x3d2c13e5	0.04201116
129	0x3d3781c0	0.044801474
130	0xbcf0f008	-0.02941133
131	0xbd1fe831	-0.039039794
132	0x3d603aea	0.054743685
133	0x3a586037	0.0008254083
134	0x3d669b3d	0.05630039
135	0xbdb83248	-0.089939654
136	0xbd3a5e63	-0.04550017
137	0xbd273caf	-0.040829357
138	0x3d737a09	0.059442554
139	0xbd3b5b53	-0.04574139
140	0xbd131435	-0.035907943
141	0x3d9dff76	0.07714741
142	0xbd50472c	-0.050849125
143	0x3d9ae8c4	0.07563928
144	0xbd246dad	-0.040143657
145	0xbd9ca0ff	-0.07647895
146	0x3dd58fa6	0.104277894
147	0x3d03f897	0.032219496
148	0x3d6649bc	0.056222662
149	0xbdb06b85	-0.08614258
150	0xbd0ac764	-0.03388156
151	0xbcc5db56	-0.02415244
152	0x3d024d82	0.0318122
153	0x3da1ffe1	0.07910133
154	0x3cf4f011	0.029899629
155	0x3b2adb93	0.0026070818
156	0x3de97b04	0.114004165
157	0x3d2ac3e8	0.041690737
158	0x3dd13775	0.10215656
159	0xbd65e7be	-0.05612921
160	0xbbe204cb	-0.006897544
161	0xbd3647ef	-0.044502195
162	0x3dc1ae1a	0.09457035
163	0xbdc6f41a	-0.097145274
164	0x3d06121e	0.03273212
165	0xbd4ffb06	-0.050776504
166	0x3ce1c1b5	0.027558187
167	0x3d0ff077	0.035141435
168	0xbd171f62	-0.036895163
169	0xbc8cfc15	-0.017210046
170	0xbda9a383	-0.082831405
171	0x3d42b323	0.04753412
172	0xbc0811bd	-0.00830501
173	0xbdc64027	-0.09680205
174	0xb986777d	-0.00025647497
175	0x3cc844ce	0.024446871
176	0x3d41de9f	0.04733145
177	0x3d2c6d68	0.042096525
178	0xbd9a42da	-0.07532282
179	0x3d8afff1	0.06787098
180	0xbd710479	-0.058842156
181	0xbdd3d947	-0.10344177
182	0xbddbf6f6	-0.107404634
183	0x3c8f0584	0.017458685
184	0xbb7052c3	-0.0036670424
185	0xbdc813c3	-0.09769394
186	0xbbde574f	-0.0067853103
187	0x3db1e97b	0.08687111
188	0xbce95d83	-0.028486973
189	0xbddb72dd	-0.10715268
190	0xbd1a4779	-0.037665818
191	0x3cb75f19	0.022384213
192	0x3cc6fd26	0.024290632
193	0xbd0d46b5	-0.03449126
194	0x3d34a3b0	0.044101417
195	0x3d2353cc	0.039874837
196	0xbcd5babd	-0.02609002
197	0xbda0e67d	-0.07856462
198	0xbd2410e4	-0.04005517
199	0x3db678ab	0.08909734
200	0xbb339c90	-0.002740655
201	0xbce058f1	-0.02738616
202	0x3d5c46ca	0.053778447
203	0xbb959289	-0.0045645875
204	0x3d379c18	0.044826597
205	0x3da4f59a	0.08054657
206	0x3d8b3160	0.06796527
207	0x3d9e1c84	0.07720283
208	0x3d23f435	0.040027816
209	0x3da051c5	0.07828096
210	0x3c8aa904	0.016926296
211	0x3ab07e99	0.0013465463
212	0xbc3ded93	-0.011592287
213	0x3c06bf55	0.008224328
214	0xbb2a0e89	-0.0025948605
215	0xbc8042c8	-0.015656844
216	0x3d1145ce	0.03546696
217	0x3c9fb1e3	0.019494003
218	0x3d870dbf	0.06594419
219	0x3ccc24d2	0.024919901
220	0xbdbaff69	-0.09130747
221	0xbd84bdb6	-0.06481497
222	0x3d58da90	0.052942812
223	0xbd9e3bb3	-0.077262305
224	0xbda62ed4	-0.081144005
225	0x3db63520	0.088968515
226	0xbd669f53	-0.056304287
227	0x3da2b9d4	0.079456
228	0xbc7965b1	-0.015221999
229	0x3d4cc48f	0.04999214
230	0x3d1d6443	0.038425695
231	0x3daa5f29	0.083189316
232	0xbd53e481	-0.05173159
233	0x3baa9618	0.005205881
234	0xbd81c855	-0.063370384
235	0xbd87dabe	-0.06633519
236	0xbd1c48de	-0.03815543
237	0x3c52bc30	0.01286225
238	0x3d7480a1	0.059692983
239	0x3d8e420f	0.069461934
240	0xbcf97ee1	-0.030456008
241	0xbc6fb55a	-0.01463064
242	0xbd6555cc	-0.055990025
243	0x3da86630	0.08222616
244	0xbd1b2455	-0.037876446
245	0xbd815241	-0.06314517
246	0x3da089da	0.07838793
247	0x3ce7ead9	0.028310226
248	0x3c9474e2	0.01812214
249	0x3d9bd905	0.076097526
250	0x3d2576a8	0.040396363
251	0x3db06919	0.08613796
252	0xbd854a97	-0.065083675
253	0xbd08abc1	-0.033366922
254	0x3c4254c7	0.011861033
255	0x3cccebab	0.025014719

drift_model.0.bias f4 [64]
0	0x3d7479c8	0.059686452
1	0x3cc88102	0.024475578
2	0x3ca89f35	0.020583728
3	0xbd43eba7	-0.047832157
4	0xbcf395f0	-0.029734582
5	0x3da94429	0.08264954
6	0x3d2ed76b	0.042685907
7	0xbd8e5736	-0.06950228
8	0x3d32ef25	0.043685097
9	0x3c20e73f	0.009820758
10	0x3b93ebdf	0.004514202
11	0xbcd09502	-0.025461677
12	0xb9b3c55c	-0.00034288585
13	0xbd212e5f	-0.039350864
14	0x3d6ae5a9	0.057347927
15	0xbbfc30d0	-0.0076962486
16	0xbdbee21c	-0.09320471
17	0x3c4597be	0.012060104
18	0x3b029e3e	0.0019930745
19	0x3c515a33	0.012777853
20	0x3d51d3e2	0.051227458
21	0x3d3ddc16	0.04635247
22	0x3b015644	0.0019735256
23	0xbb2ece92	-0.0026673418
24	0x3d9e3579	0.07725043
25	0xbcdbc4a8	-0.026827171
26	0x3d491482	0.049091823
27	0xbb5837d1	-0.0032992254
28	0xbd5b690e	-0.053566985
29	0xbcefc8c3	-0.029270535
30	0x3da3067c	0.07960221
31	0xbd412036	-0.04714986
32	0xbc1b1677	-0.009465805
33	0x3d92814b	0.07153567
34	0xba6a3066	-0.00089336035
35	0x3cee25cd	0.02907076
36	0xbd648e1b	-0.055799585
37	0xbd0a9295	-0.033831198
38	0xbcc7acd6	-0.024374407
39	0xbd5951f5	-0.053056676
40	0xbc20da3d	-0.009817657
41	0x3d7475fc	0.05968283
42	0x3cb19108	0.021675602
43	0x3c1455e5	0.009053682
44	0x3d3b76ca	0.045767583
45	0xbda5eb0c	-0.08101472
46	0x3d5a3aff	0.05327892
47	0xbce6e8ce	-0.028187182
48	0x3dafeb71	0.08589829
49	0xbb420567	-0.002960527
50	0xbd43f78c	-0.0478435
51	0x3da69901	0.08134652
52	0x3d86292c	0.06550822
53	0xbd88da0a	-0.06682213
54	0xba25f2e5	-0.00063304446
55	0x3d8f8d77	0.07009404
56	0x3d9cf8ca	0.0766464
57	0xbd135582	-0.03597022
58	0x3c4ad777	0.012380472
59	0x3d50241e	0.050815694
60	0xbbf2b262	-0.007406519
61	0x3ccd47c3	0.025058633
62	0xbb742e22	-0.0037258943
63	0x3d0fdfb1	0.035125438

drift_model.2.weight f4 [64, 64]
0	0x3d2cf753	0.042228054
1	0x3c19fb32	0.009398269
2	0xbd1606fc	-0.036627755
3	0xbd7febe7	-0.062480833
4	0xbdb18553	-0.08668008
5	0x3da6ce41	0.081448086
6	0x3da059eb	0.078296505
7	0x3d5303bc	0.051517233
8	0x3cb5a0bf	0.022171376
9	0xbde89d19	-0.11358089
10	0xbda56df0	-0.080776095
11	0xbc84a08c	-0.016189836
12	0x3d9e69e3	0.0773504
13	0xbd0ceba2	-0.034404404
14	0xbdbb5d98	-0.09148711
15	0x3ddabeec	0.10680947
16	0xbd2fb33e	-0.042895548
17	0xbd572147	-0.05252197
18	0x3db7034e	0.08936177
19	0xbc887d72	-0.01666138
20	0x3d80646e	0.062691554
21	0xbdb2d993	-0.08732905
22	0x3cfb528d	0.030679012
23	0x3cb92a41	0.022603156
24	0x3d263a90	0.040583193
25	0x3db56ca8	0.08858615
26	0xbbad7bd4	-0.0052943025
27	0xbda8d3f7	-0.08243554
28	0x3d6405d3	0.055669617
29	0xbda3fc25	-0.08007077
30	0x3dcde79b	0.10053941
31	0x3ca55ca8	0.020185784
32	0x3ca78b1d	0.020452077
33	0x3d545221	0.051836137
34	0xbd262f3a	-0.040572383
35	0xbc807e14	-0.015685119
36	0x3d359400	0.044330597
37	0x3d8358f8	0.06413454
38	0xbdc206c9	-0.094739504
39	0x3d4b7fb1	0.049682323
40	0xbcaae729	-0.020862179
41	0x3dcd767a	0.10032363
42	0x3d5e5eea	0.054289736
43	0xbc8329ab	-0.01601108
44	0x3daf782e	0.08567844
45	0x3dac70f7	0.08419984
46	0x3d74d5eb	0.05977432
47	0xbd4fb3ce	-0.050708584
48	0x3dadebaf	0.08492219
49	0x3cc74125	0.024323056
50	0xbde0e899	-0.109818645
51	0x3b732a0b	0.0037103917
52	0x3d3f440e	0.04669576
53	0x3997bc11	0.00028941085
54	0xbdd96ae6	-0.106160924
55	0x3de34897	0.1109783
56	0x3d7018e6	0.058617495
57	0x3db23efe	0.08703421
58	0xbdb586d3	-0.08863606
59	0x3c9f0909	0.019413488
60	0x3d3d966c	0.04628603
61	0xbd8fabaa	-0.07015164
62	0xbc33959c	-0.010960963
63	0x3c3371cb	0.010952423
64	0x3e003950	0.12521863
65	0xbd7fa665	-0.062414546
66	0x3e238ee9	0.15972485
67	0xbde7ab59	-0.11311979
68	0xbc2cf551	-0.010556535
69	0xbd44adfe	-0.048017494
70	0x3cab79bb	0.020932069
71	0x3d615016	0.055008017
72	0xbd9e4992	-0.07728876
73	0x3da1bf7b	0.0789785
74	0xbd56c733	-0.052436065
75	0xbe08ee6f	-0.13372205
76	0xbe0150e0	-0.12628508
77	0xbdef1872	-0.116745844
78	0xbde6ec4c	-0.11275539
79	0x3e082e3d	0.13298889
80	0x3c94fcd2	0.01818696
81	0xb9d9d5c0	-0.00041548721
82	0x3cc678e8	0.024227574
83	0x3c20040d	0.009766591
84	0x3c3ef389	0.011654743
85	0xbbac989b	-0.0052672154
86	0xbcc3866a	-0.023867805
87	0xbb972926	-0.0046130596
88	0x3e201a26	0.15634975
89	0xbd925cdb	-0.07146617
90	0xbe1c124b	-0.15241353
91	0x3c0ee752	0.008722143
92	0xbd864a40	-0.06557131
93	0xbde39841	-0.111130245
94	0xbdc9cc28	-0.09853393
95	0xbc3d7498	-0.011563443
96	0x3df2a7d7	0.11848419
97	0x3e006af4	0.125408
98	0x3e035a17	0.12827335
99	0xbd855480	-0.06510258
100	0xbdb56f91	-0.0885917
101	0xbd91b254	-0.071140915
102	0xbd8a888c	-0.067643255
103	0xbd868a51	-0.065693505
104	0x3b42b7a4	0.002971151
105	0x3dd4d9b2	0.103930846
106	0xbdf36d7c	-0.11886117
107	0xbd63594c	-0.055505082
108	0x3e121573	0.14265995
109	0x3d1bdb7a	0.038051106
110	0x3c9b1932	0.018932912
111	0xbd92b0d4	-0.071626335
112	0xbde0b3fa	-0.10971828
113	0xbb5eeec0	-0.0034016818
114	0x3d9637d9	0.07334871
115	0x3b6ad9a3	0.0035835288
116	0xbe203c86	-0.15648088
117	0xbd941978	-0.0723142
118	0xbd37d662	-0.044882186
119	0xbd64a53b	-0.05582164
120	0x3d312bb1	0.043254558
121	0xbd46c556	-0.048528038
122	0xbc3cb7fa	-0.011518473
123	0x3cda73b1	0.026666494
124	0xbd677702	-0.05650998
125	0x3db484d5	0.08814398
126	0x3d99141e	0.0747454
127	0x3dc9e263	0.09857633
128	0xbdcc09ba	-0.09962793
129	0x3d93670b	0.07197388
130	0x3e121ef7	0.14269625
131	0xbd106d1f	-0.035260316
132	0x3d4cc5e1	0.0499934
133	0x3d3fc845	0.04682185
134	0x3cfb8fb8	0.030708179
135	0x3d257484	0.04039432
136	0x3d9b082d	0.07569919
137	0x3b9071fa	0.0044081183
138	0x3cf9662c	0.030444227
139	0xbd9c7b39	-0.0764069
140	0x3cdf90de	0.027290758
141	0x3db7682b	0.08955415
142	0xbdd0257f	-0.10163402
143	0x3dfe249c	0.124093264
144	0xbcada6b5	-0.021197656
145	0xbd442528	-0.047886997
146	0x3d20d1a0	0.039262414
147	0x3d8c102a	0.068390206
148	0x3cbd10d6	0.023079317
149	0x3d0c0c06	0.034191154
150	0xbd1a9046	-0.037735246
151	0x3d6449be	0.05573439
152	0x3e054c11	0.13017298
153	0x3c2a3c89	0.010390409
154	0xbd32df4c	-0.043669984
155	0xbdc38367	-0.095465474
156	0x3d30e87f	0.043190476
157	0xbdd1b053	-0.10238709
158	0x3d123033	0.035690498
159	0x3d184caf	0.037182506
160	0xbd330518	-0.04370603
161	0x3de06cd9	0.10958261
162	0x3da23b59	0.07921476
163	0x3ceaeee3	0.028678363
164	0x3d643e5b	0.05572353
165	0xbcda5299	-0.026650714
166	0x3e030893	0.1279624
167	0x3c2e014a	0.0106204245
168	0x3c10843b	0.008820589
169	0x3d595272	0.05305714
170	0xbd5e0e49	-0.054212842
171	0xbdcdacf7	-0.10042756
172	0x3e04df3a	0.12975779
173	0x3d9dfa52	0.077137604
174	0x3dce456b	0.10071834
175	0x3dc7a6e1	0.097486265
176	0x3df730d6	0.120698616
177	0x3ca238c9	0.019802468
178	0x3d4fc09f	0.050720807
179	0xbcbfa2a7	-0.023392988
180	0xbcb3f67e	-0.021968123
181	0xbe0413e2	-0.1289821
182	0x3dbb6b6e	0.0915135
183	0x3d513eb0	0.051085174
184	0xbdfefe5e	-0.124508604
185	0xbe2ae66a	-0.16689458
186	0xbdabb2ea	-0.083837345
187	0x3c591a7e	0.013250945
188	0xbdede210	-0.116153836
189	0xbd463367	-0.048388865
190	0x3da9bec1	0.082883365
191	0x3d2c2973	0.042031717
192	0xbb452149	-0.0030079654
193	0x3acd9f16	0.001568767
194	0xbd195d1a	-0.037442304
195	0x3bbfba30	0.0058510527
196	0xbd4473dc	-0.047962055
197	0xbdcd37fc	-0.10020444
198	0xbde6f933	-0.11278
199	0xbbee3718	-0.0072697513
200	0xbd73e523	-0.059544694
201	0xbdabf3fa	-0.08396144
202	0xbde54d9e	-0.11196445
203	0x3c59e974	0.0133002885
204	0xbd368068	-0.04455605
205	0x3def1e02	0.116756454
206	0xbdd2c646	-0.10291724
207	0x3d07e542	0.03317762
208	0x3c2d0177	0.010559431
209	0xbd6c3ac9	-0.05767325
210	0x3dbbdcd6	0.091729805
211	0x3c6da4f8	0.014504664
212	0xbd402eb1	-0.04691953
213	0x3da6f245	0.08151678
214	0x3d2c9454	0.042133644
215	0x3ce0079d	0.02734738
216	0x3c3bd3ff	0.011464118
217	0x3d553f41	0.052062277
218	0xbd6a0957	-0.057137813
219	0xbc0b4330	-0.0084999055
220	0xbd9ec39d	-0.07752154
221	0xbc162958	-0.009165131
222	0xbdb14ece	-0.08657609
223	0x3cf8a5e2	0.030352537
224	0xbd05ae9c	-0.032637224
225	0xbd210878	-0.039314717
226	0xbc5e753b	-0.013577755
227	0x3de74ada	0.11293574
228	0x3dce6609	0.100780554
229	0x3aca59f9	0.0015438191
230	0xbc8a49e6	-0.01688094
231	0x3b4aa50b	0.0030921127
232	0xbb4a00c7	-0.0030823217
233	0xbcf62c20	-0.030050337
234	0x3da6f151	0.08151496
235	0xbdeea155	-0.116518654
236	0x3d9b57bf	0.075850956
237	0xbdb79a6e	-0.08965002
238	0xbc54954b	-0.012975047
239	0x3d9ae3f3	0.07563009
240	0xbd7ed955	-0.062218983
241	0xbe0856c1	-0.13314344
242	0xbd924f6c	-0.07144055
243	0xbde518c0	-0.11186361
244	0xbdc84347	-0.09778457
245	0x3de695c2	0.11259033
246	0xbd033e2b	-0.03204171
247	0xbd235740	-0.03987813
248	0x3d33a3a0	0.043857217
249	0x3d1c0f63	0.03810061
250	0x3dc7b06b	0.09750446
251	0x3cfd8036	0.030944925
252	0xbca444ed	-0.020052398
253	0xbde58213	-0.1120645
254	0xbde17637	-0.11008876
255	0x3d491a3d	0.04909729

drift_model.2.bias f4 [64]
0	0xbdc02502	-0.09382059
1	0xbda5dd48	-0.08098847
2	0x3da0a44d	0.07843838
3	0xbde133d5	-0.10996214
4	0x3ddbcb4c	0.10732135
5	0x3dba9b25	0.09111623
6	0xbd56a0fe	-0.052399628
7	0x3d843195	0.064547695
8	0x3db43d8e	0.08800803
9	0xbc0ab014	-0.008464832
10	0x3d08585a	0.033287384
11	0xbdadf9c3	-0.08494904
12	0xbd9ae9b1	-0.07564104
13	0x3bbd2d8e	0.005773253
14	0xbd3032db	-0.04301725
15	0xbdce9d62	-0.10088612
16	0xbc0039bb	-0.007826264
17	0xbd56ca19	-0.05243883
18	0x3d078473	0.033085298
19	0xbdad3b08	-0.08458525
20	0xbd1a8d2d	-0.037732292
21	0x3d222713	0.039588045
22	0x3d8c10e3	0.068391584
23	0x3dbacb4f	0.09120809
24	0x3df4509b	0.11929437
25	0x3c16c6a9	0.009202638
26	0xbd67efaa	-0.056625046
27	0x3ddd9e93	0.10821261
28	0xbd9a5989	-0.07536609
29	0x3b418228	0.0029527042
30	0x3c90d0b7	0.017677648
31	0x3dd30ff4	0.10305777
32	0x3daca058	0.08429021
33	0xbc06bcc9	-0.008223721
34	0xbddd328e	-0.10800658
35	0x3d04fbcb	0.03246669
36	0x3dbfa1d2	0.09357037
37	0x3ddc303a	0.10751386
38	0xbd0d15c7	-0.034444597
39	0xbd1636cc	-0.036673352
40	0x3df1711b	0.11789151
41	0x3cc93bae	0.02456459
42	0xbd23c72b	-0.039984863
43	0xbcaa1e30	-0.020766348
44	0x3ba96747	0.0051697823
45	0xbd82c4c5	-0.06385187
46	0xbdbb4139	-0.091432996
47	0xbdc7dc51	-0.09758819
48	0xbca31690	-0.01990822
49	0x3d1a85dc	0.037725314
50	0x3ce8a7aa	0.028400261
51	0xbd447afd	-0.047968853
52	0xbd92e569	-0.07172663
53	0xbdd9018e	-0.10596
54	0x3d843299	0.06454963
55	0xbd99439e	-0.074836
56	0xbd6fe87b	-0.05857132
57	0xbab0287a	-0.0013439797
58	0xbda95dd9	-0.08269853
59	0x3b885fc1	0.0041618054
60	0xbd98dc27	-0.07463866
61	0xbde92e34	-0.11385766
62	0x3d6b6771	0.057471696
63	0x3c8955e5	0.01676459

drift_model.4.weight f4 [64, 64]
0	0xbdfb024e	-0.12256299
1	0xbd22fdef	-0.03979295
2	0x3da8263c	0.08210418
3	0x3b8dbef9	0.004325744
4	0x3d634896	0.055489145
5	0xbd369c04	-0.04458238
6	0xbd5011c3	-0.05079819
7	0x3df34980	0.118792534
8	0x3d684ace	0.056711964
9	0x3e0a6f80	0.13519096
10	0x3ac110a1	0.0014729687
11	0x3d7a2a51	0.061075512
12	0xbd716613	-0.058935236
13	0xbc902e32	-0.017600153
14	0xbd9f52aa	-0.07779439
15	0x3e1f5c9f	0.15562676
16	0x3da76e11	0.081752904
17	0x3e1b7e28	0.15184844
18	0xbd82188c	-0.06352338
19	0x3d5e7a93	0.054316115
20	0x3cacb628	0.021082953
21	0x3ccbe1a2	0.024887864
22	0xbd80a6a5	-0.06281785
23	0x3d6c7d3f	0.05773663
24	0xbc4939f0	-0.01228188
25	0xbd33bc9b	-0.04388104
26	0xbd5fcd6d	-0.05463927
27	0xbdb8a583	-0.09015944
28	0x3d96d657	0.07365101
29	0xbddd509f	-0.10806393
30	0xbdf87614	-0.121318966
31	0x3b8e8e0d	0.00435043
32	0x3dcffdcd	0.101558305
33	0x3dd942f4	0.106084734
34	0xbdce1f30	-0.10064542
35	0xbca05ad5	-0.019574562
36	0xbda84876	-0.08216946
37	0xbcc805e4	-0.024416871
38	0xbda3821b	-0.079838
39	0x3d95cada	0.073140815
40	0x3dad82e2	0.084722295
41	0x3de5a0cf	0.112123124
42	0xbd0e9a7e	-0.034815304
43	0xbd12197f	-0.035668846
44	0xbd9f4fb7	-0.07778876
45	0x3dead07f	0.11465549
46	0xbd9a6ded	-0.07540498
47	0x3acf723f	0.0015826895
48	0x3d6ef919	0.058343027
49	0xbd80b52a	-0.06284554
50	0xbdbda944	-0.092608005
51	0xbdb48a2c	-0.08815417
52	0x3d94546e	0.07242666
53	0x3d96d853	0.07365479
54	0xbcdb694b	-0.026783606
55	0xbbf9baab	-0.0076211295
56	0x3e226e0b	0.1586229
57	0x3dfe4ef6	0.12417404
58	0x3dd89b8b	0.105765425
59	0x3d0cc035	0.03436299
60	0x3d58b499	0.052906606
61	0xbdafc25a	-0.085819915
62	0xbda7d5c2	-0.08195068
63	0x3d2fd951	0.04293186
64	0xbd114111	-0.035462443
65	0xbcfd3fca	-0.030914206
66	0x3d9ba4b8	0.07599777
67	0x3d98decd	0.07464371
68	0xbd45593b	-0.0481808
69	0xbdcf926d	-0.101353504
70	0x3db58826	0.08863859
71	0xbd600b82	-0.054698475
72	0x3c027181	0.007961632
73	0xbd16d9da	-0.036828853
74	0xbd4423d2	-0.047885723
75	0x3d1020c1	0.035187487
76	0xbc9e2c97	-0.019308371
77	0x3d6084dc	0.054814205
78	0xbd60c244	-0.054872766
79	0xbdd2fcb9	-0.10302109
80	0x3d380a26	0.044931553
81	0xbdd2ec15	-0.10298935
82	0xbd8d4cc2	-0.06899406
83	0xbd788b0f	-0.06067949
84	0xbd919f28	-0.07110435
85	0x3dd98f56	0.10623042
86	0x3c1ef00b	0.009700785
87	0xbd0de3c0	-0.034641027
88	0xbc84c60a	-0.016207714
89	0x3dfc905e	0.12332223
90	0x3dd4e673	0.10395517
91	0xbd366163	-0.04452647
92	0xbd5a980c	-0.05336766
93	0x3d012de1	0.031537894
94	0xbaa6a24e	-0.0012713165
95	0x3d8d902a	0.06912263
96	0x3cb8c72d	0.022555912
97	0x3dbe9706	0.09306149
98	0x3db2d4aa	0.08731969
99	0x3b0c9c4b	0.0021455463
100	0xbc1da2b1	-0.009621308
101	0x3cfa6ad0	0.03056851
102	0x3da9e0ba	0.08294816
103	0x3cc2891f	0.023747025
104	0x3d920765	0.07130317
105	0xbc55f264	-0.013058279
106	0xbd79b6a5	-0.0609652
107	0xbdc3be23	-0.0955775
108	0xbd5d3288	-0.05400327
109	0xbdd48995	-0.10377804
110	0xbccfbe1f	-0.025359211
111	0xbdb4e0cc	-0.08831939
112	0x3d8d29f5	0.06892768
113	0xbd38ce8d	-0.045118857
114	0xbd31731b	-0.043322664
115	0x3cd46d17	0.025930924
116	0x3c07313b	0.008251484
117	0x3ddd49a1	0.10805059
118	0x3d041250	0.032244027
119	0x3d26a121	0.04068101
120	0x3d09442f	0.03351229
121	0x3dadbfc5	0.08483843
122	0x3df93c51	0.121697076
123	0x3d371a2c	0.044702694
124	0x3d103aab	0.0352122
125	0xbda76fdd	-0.08175633
126	0xbd4570c6	-0.048203252
127	0x3d4ce2d3	0.050021004
128	0xbd2164b5	-0.039402682
129	0x3d54d9bd	0.051965464
130	0x3d55b6cd	0.052176286
131	0xbd07a1d3	-0.033113312
132	0x3d947e2d	0.072506286
133	0xbe292881	-0.16519357
134	0x3bcae843	0.0061922385
135	0x3bafaf7b	0.005361495
136	0x3dd767a8	0.10517818
137	0xbd0a865d	-0.033819545
138	0xbe04532f	-0.12922357
139	0x3ddf7485	0.10910896
140	0x3e1ade4c	0.15123862
141	0xbce00f0d	-0.027350927
142	0x3dd7aa69	0.1053055
143	0x3dbd6417	0.09247606
144	0xbcd60a15	-0.026127854
145	0x3e0080c8	0.12549126
146	0x3e0b794b	0.13620488
147	0xbe10cfdd	-0.14141794
148	0x3d8ef4ad	0.06980262
149	0xbdcd708b	-0.100312315
150	0xbd9e20a1	-0.07721067
151	0xbd50dee1	-0.050993804
152	0xbc519327	-0.0127914315
153	0x3c1d32a6	0.009594595
154	0xbcb91c31	-0.02259645
155	0x3d810c2d	0.063011505
156	0xbdc50e2c	-0.09621844
157	0xbcdf084b	-0.027225634
158	0xbd9666fd	-0.07343862
159	0x3d31a7a9	0.043372784
160	0x3d3d54ff	0.046223637
161	0x3d2c047b	0.04199646
162	0x3cd6d349	0.026223795
163	0xbdfa0f07	-0.122098975
164	0xbcdd06ac	-0.02698072
165	0xbd7997e2	-0.060935862
166	0xbdeac826	-0.114639565
167	0x3d29e4c1	0.041477922
168	0x3c42832d	0.011872095
169	0xbdbc56e7	-0.09196263
170	0x3da67994	0.08128658
171	0x3d91f2d6	0.071263954
172	0x3d8bd497	0.06827658
173	0x3e1c1798	0.15243375
174	0xbd9225c4	-0.071361095
175	0xbdc83ea1	-0.097775705
176	0xbdc13ee3	-0.09435823
177	0x3dcbdde1	0.099544294
178	0xbd40c50c	-0.04706292
179	0xbcaa2a10	-0.02077201
180	0x3bd00fe2	0.0063495496
181	0xbdb9cf18	-0.09072703
182	0x3d54e63d	0.051977385
183	0x3c447094	0.011989731
184	0x3d59098b	0.052987617
185	0x3e0ac043	0.13549905
186	0x3d167e85	0.036741752
187	0xbdd5367e	-0.10410784
188	0x3dab8aa9	0.08376057
189	0x3d5e4043	0.054260504
190	0x3c677584	0.014127139
191	0x3ded314a	0.11581667
192	0xbd529bcb	-0.051418107
193	0xbdd83771	-0.105574496
194	0xbdd7aaff	-0.10530662
195	0x3d217740	0.039420366
196	0xbe006849	-0.12539782
197	0xbdaa302e	-0.08309971
198	0x3de885fd	0.11353681
199	0x3da3e0d7	0.08001869
200	0x3d32d25a	0.043657638
201	0x3b44862f	0.0029987206
202	0x3d93d46c	0.07218251
203	0x3d60ff3b	0.054930907
204	0xbd88b07e	-0.06674288
205	0xbd6a37c0	-0.057182074
206	0x3b7955eb	0.0038045596
207	0xbe0986b4	-0.13430291
208	0xbdd39f11	-0.10333074
209	0xbd94aad3	-0.07259145
210	0x3df96f6d	0.12179456
211	0x3daeae99	0.085293956
212	0x3d607e29	0.054807816
213	0x3cb1fef3	0.021728015
214	0x3c0af545	0.008481328
215	0x3df6108d	0.120148756
216	0x3ac5b007	0.0015082367
217	0x3de3d5e5	0.111247815
218	0xbd879504	-0.06620219
219	0x3d096e15	0.033552248
220	0x3deac4cd	0.11463318
221	0x3cb32ff4	0.021873452
222	0x3ddfae12	0.10921873
223	0xbcb59237	-0.022164447
224	0x3e0e7aaa	0.1391398
225	0xbd1c9ade	-0.03823363
226	0x3da05396	0.07828443
227	0x3dc74d5f	0.09731554
228	0x3ded623c	0.11591002
229	0xbd827471	-0.06369866
230	0x3cbf25aa	0.02333339
231	0xbdf27a15	-0.118396915
232	0xbdb43eed	-0.08801065
233	0xbdff4433	-0.1246418
234	0x3dba3c0e	0.09093486
235	0xbcc1268b	-0.023577949
236	0x3dc88957	0.097918205
237	0x3dc3880a	0.09547432
238	0x3db3bce2	0.08776261
239	0x3d1688d0	0.03675157
240	0x3dfa9e9e	0.12237285
241	0xbcfac247	-0.030610217
242	0x3c57d229	0.013172665
243	0x3db09b78	0.08623403
244	0xbd6784dd	-0.056523193
245	0x3d45174d	0.048117924
246	0x3d945bdd	0.07244084
247	0xbcd17874	-0.025570132
248	0x3d8ecfa5	0.06973199
249	0x3de5cdc7	0.112208895
250	0xbd15daf4	-0.036585763
251	0xbdab4774	-0.08363238
252	0x3d4d9762	0.050193198
253	0x3cde4d8a	0.027136583
254	0xbd7a833a	-0.061160304
255	0x3d282487	0.04105046

drift_model.4.bias f4 [64]
0	0xbae4706f	-0.0017428527
1	0xbd53850c	-0.051640555
2	0x3d90a98f	0.07063591
3	0x3d4dc338	0.050235003
4	0x3dc70c1d	0.09719107
5	0x3d579062	0.05262793
6	0xbab825e0	-0.0014049374
7	0xbdad49dc	-0.08461353
8	0xbd430092	-0.047607966
9	0x3cc58d58	0.02411525
10	0x3dad0cdb	0.084497176
11	0xbd691a1b	-0.05690966
12	0xbdda079f	-0.10645985
13	0x3d489665	0.048971552
14	0xbc8dde1f	-0.01731783
15	0x3d0ecd3f	0.034863707
16	0xbd7aa6ac	-0.061194107
17	0x3d9ef2a0	0.07761121
18	0xbcf6d744	-0.030131944
19	0xbd6337ff	-0.055473324
20	0x3da17c70	0.07885063
21	0x3d8fcfaa	0.07022031
22	0xbd20527b	-0.03914116
23	0x3d4c2038	0.049835414
24	0xbce13d6e	-0.027495112
25	0x3cdc3f9f	0.026885806
26	0xbd8904f8	-0.06690401
27	0x3d55a9f7	0.052164044
28	0x3df7a3ce	0.1209179
29	0xbc9d0027	-0.019165112
30	0x3de263a9	0.11054165
31	0x3d8ebd7d	0.06969736
32	0x3d8cedd7	0.06881302
33	0xbd2d3b20	-0.042292714
34	0xbc958e60	-0.018256366
35	0xbce91df0	-0.028456658
36	0x3ddf973a	0.10917516
37	0xbd291a6b	-0.04128496
38	0x3db7e174	0.08978549
39	0xbd561f89	-0.052276168
40	0xbcc9c6c9	-0.024630921
41	0xbcffbc01	-0.031217577
42	0xbde06b99	-0.109580226
43	0xbd3f09b5	-0.046640117
44	0xbd5bd34e	-0.053668313
45	0x3bbecfd3	0.0058231144
46	0xbdf63bfb	-0.12023159
47	0x3d5da307	0.054110553
48	0x3d104a14	0.035226896
49	0xbc9fb531	-0.019495578
50	0xbdb407ef	-0.08790576
51	0x3d3020e9	0.043000136
52	0xbd534d1c	-0.05158721
53	0xbdf7e09a	-0.12103386
54	0x3d98526b	0.07437595
55	0xbd521fd4	-0.051299885
56	0x3dadaff7	0.08480828
57	0x3d8a9a14	0.06767669
58	0x3d0e59fd	0.03475379
59	0xbd76bf0f	-0.0602408
60	0xbc566add	-0.013087002
61	0xbdaa6283	-0.08319571
62	0xbba64e2c	-0.005075237
63	0xbc8ceffc	-0.017204277

drift_model.6.weight f4 [1, 64]
0	0xbd1542fb	-0.03644083
1	0x3de75143	0.11294796
2	0xbde20a61	-0.11037136
3	0x3dc7cf06	0.097562835
4	0x3d5451e2	0.051835902
5	0xbe13b07e	-0.14422795
6	0x3e0c3f4a	0.13696018
7	0xbe0b6f0b	-0.13616578
8	0xbe01892e	-0.12649986
9	0x3ce931ff	0.028466223
10	0xbda0c9da	-0.07851
11	0xbcf38d64	-0.029730506
12	0x3c5b0a3f	0.013369142
13	0x3dc6eef2	0.09713544
14	0xbdf3fc91	-0.119134076
15	0x3db23eb8	0.08703369
16	0xbdd2d300	-0.10294151
17	0x3e07f2b5	0.13276179
18	0xbdec5b50	-0.11540854
19	0x3e0fd6b7	0.14046751
20	0xbd9242d9	-0.071416564
21	0x3d704c55	0.058666546
22	0x3dc0ba88	0.09410578
23	0x3d3435ea	0.04399673
24	0x3dfaec6c	0.12252125
25	0xbe07c68b	-0.13259332
26	0xbda1c929	-0.078996964
27	0xbccb8896	-0.024845403
28	0x3d5708a5	0.05249848
29	0x3e16d307	0.14728938
30	0x3ce69bf1	0.02815053
31	0xbe044612	-0.12917355
32	0xbd738a9d	-0.059458364
33	0xbd9c33a2	-0.07627036
34	0xbd92b751	-0.07163871
35	0x3d061e80	0.03274393
36	0x3db1dfca	0.086852625
37	0x3d398309	0.04529098
38	0xbc87356e	-0.01650497
39	0xbde0ff3f	-0.10986184
40	0x3d408512	0.047001906
41	0xbc443a3f	-0.011976778
42	0x3d60ad44	0.05485274
43	0x3df1ed75	0.118128695
44	0xbb9305d6	-0.0044867797
45	0xbdf28bed	-0.11843095
46	0xbde9b1b2	-0.11410846
47	0xbdb1b2cf	-0.08676683
48	0x3d9ed0db	0.0775468
49	0x3d8495db	0.06473895
50	0x3d9aee4d	0.075649835
51	0x3da333bd	0.07968853
52	0xbd4cb5a4	-0.049977913
53	0x3dd54c86	0.10414986
54	0xbdf65643	-0.12028172
55	0xbdd05bb2	-0.101737395
56	0x3d4d1d90	0.05007702
57	0x3dc8dacf	0.098073594
58	0x3dd3004a	0.103027895
59	0xbd34bfc7	-0.044128206
60	0xbd727788	-0.059196025
61	0xbd9de46d	-0.077095844
62	0xbdce7916	-0.10081689
63	0xbe133f16	-0.14379534
